chat_git/data.pth (torch, 5034 bytes, 6 tensors)

l1.weight f4 [8, 44]
000000 51 36 35 3f f3 e4 00 3f 17 f9 44 bf ef 26 4f 3f
       0.70786005 0.5034935 -0.7694258 0.8091878
000010 84 96 bd 3e 1a 8e c4 3e 5f e5 c2 3e e5 98 b9 3e
       0.37028897 0.38389665 0.3806562 0.36249462
000020 2d f4 02 3f fd be ae 3e 98 eb 86 3e 7f d4 31 be
       0.5115383 0.34130087 0.2635162 -0.17366217
000030 61 32 04 3f 0e 7b 21 be 45 fb 35 3f 64 44 45 bf
       0.5163937 -0.15769598 0.7108653 -0.7705748
000040 fd c7 35 3e ec 7d bb bd ae 97 64 3e 8b 83 6f 3d
       0.1775207 -0.09154877 0.22323486 0.05847506
000050 ef 4f 63 3e 58 d4 e1 3c 82 4e 68 3e d6 fe 7e 3e
       0.22198461 0.027567074 0.22686198 0.249019
000060 4a 82 88 3d eb f1 db bd af 40 d7 3e 90 a9 f0 3b
       0.06665476 -0.107395016 0.42041537 0.007344432
000070 ae 3a 09 3f 5e db 97 be ef 7c 08 3f b7 c3 eb 3e
       0.53605163 -0.2965955 0.53315634 0.46047756
000080 36 9b b4 3e 56 24 34 3f a4 54 35 be 54 fc c9 3e
       0.35274667 0.70367944 -0.17708069 0.39450324
000090 35 ca 8c 3e 4d 2e a8 3e ef 55 9c 3d e1 d3 dc 3e
       0.27498022 0.32847825 0.07633578 0.431304
0000a0 b2 d7 8d 3e 39 5e 8b be 9f a3 04 3f 38 22 04 3f
       0.27703625 -0.27220324 0.51812166 0.51614714
0000b0 64 92 73 3f ab ba f2 3e 62 ba 15 be fa f4 4d 3f
       0.9514525 0.4740804 -0.1462188 0.8045193
0000c0 6f 23 04 bf 71 e7 af 3e 72 7a 86 3e a4 b1 c7 3e
       -0.5161657 0.34356263 0.26265293 0.39002717
0000d0 83 87 04 3f 42 b2 e2 3e 7c 7e af 3e 35 15 97 bd
       0.51769274 0.44276625 0.34276187 -0.07377092
0000e0 d5 d9 e2 3d 89 2b 06 be 2d 46 5e 3f a5 b6 aa bd
       0.110767044 -0.13102545 0.8682583 -0.08335618
0000f0 84 f8 0a be 63 f9 a0 bd e3 41 84 be e6 12 82 be
       -0.13571364 -0.07860067 -0.25831518 -0.25405043
000100 f6 a3 77 bf 43 fd 76 be 2a 14 b7 3e db ba ba be
       -0.9673456 -0.24120049 0.3575757 -0.36470684
000110 9d 8c e1 be 7a 9f ae be b2 dc 5f 3e 74 7e 7c 3d
       -0.44052592 -0.34106046 0.21861532 0.061644033
000120 28 50 07 be f0 3a 2a 3e f1 dc 90 3e f7 d9 5d 3e
       -0.13214171 0.16624045 0.28293565 0.21665178
000130 00 26 8d 3e b4 9d 6d 3f 22 26 97 be e4 9b a0 be
       0.27568054 0.9281876 -0.2952128 -0.31368935
000140 d1 d9 07 3e 56 96 c5 be 58 fb a8 be 6f 37 f8 3e
       0.13266684 -0.3859126 -0.3300426 0.48479792
000150 cb 5d f0 bd f8 06 2a bc 36 b4 9c 3e fd 97 78 3e
       -0.117366396 -0.010377638 0.3060624 0.24276729
000160 c4 c4 28 bf eb 03 f8 bd 73 b3 89 bd cb d5 15 bf
       -0.6592524 -0.12110122 -0.0672368 -0.5852935
000170 40 2c 5c 3f e6 b0 b3 3d 95 3f a9 3e 92 b8 a2 3e
       0.8600502 0.08773975 0.33056322 0.3178144
000180 8c 7c 23 3e 44 10 ba 3e 4e 69 b1 3c dd c2 2b be
       0.1596548 0.36340535 0.021656659 -0.16773553
000190 09 36 e3 3e c1 15 9a be 3c e9 21 bf 44 24 24 3d
       0.44377163 -0.30094722 -0.6324651 0.040073648
0001a0 1e eb c7 3e d8 19 68 be a7 6f 1c 3f fd e1 4b 3f
       0.39046568 -0.22666109 0.6110787 0.79641706
0001b0 f1 1c a9 3f ed 33 cd bd cd f2 3a 3c 3b 82 4c 3f
       1.3211957 -0.1001967 0.011410427 0.79886216
0001c0 ff 53 1e 3f 39 c2 86 be 5a 0d 74 3d d7 99 f0 3e
       0.6184692 -0.26320055 0.059583046 0.4699237
0001d0 22 92 28 3f a3 a4 c9 be ef 1c 00 3e d7 10 c2 3e
       0.6584798 -0.3938342 0.12511037 0.37903473
0001e0 ae e4 2d 3e db c8 28 bf 7f 3b 09 be 72 6a 0b 3f
       0.16981766 -0.6593148 -0.13401602 0.544593
0001f0 c1 2f 0e 3e 40 fd 36 3f a7 7f 24 3f 83 72 26 be
       0.13885404 0.7148018 0.6425728 -0.1625462
000200 6f 54 e2 3e c1 56 90 be 3c e2 92 3e 15 eb c2 3e
       0.44205043 -0.28191188 0.28688228 0.38069978
000210 59 dc 6b 3f 23 77 5e 3f 8b b6 35 bf fa b4 14 bf
       0.921331 0.8690054 -0.70981663 -0.5808865
000220 da 1d 3b 3f 2c f1 46 be a2 79 cf bd e4 a5 f8 3d
       0.73092425 -0.19427937 -0.101306215 0.12141016
000230 22 13 30 3e c9 79 07 3e d6 22 ec 3d f9 7d 6d be
       0.17194799 0.13230051 0.11530082 -0.23192586
000240 5a 20 c8 3e 46 4d 08 be 90 73 11 bf f3 b6 35 bf
       0.39087182 -0.13310727 -0.5681696 -0.70982283
000250 5f eb 4e 3f 0b 2f eb bd 88 6d f4 bd c8 ea 70 be
       0.808279 -0.11483582 -0.11934954 -0.23527062
000260 2a f1 89 be 54 4c 64 bd ae ac 38 be e8 a0 7f 3f
       -0.26941806 -0.055736855 -0.18034622 0.998549
000270 fd 89 4c 3f 65 d5 85 be 29 8d 3c be 99 39 81 be
       0.79898053 -0.2613937 -0.18413223 -0.25239256
000280 3d 0a 68 3f 0e ea b3 be 70 c7 c7 3d 6c c4 6a 3d
       0.9064062 -0.35139507 0.097548366 0.05731623
000290 f4 d0 2e 3e b4 78 45 3f 2d e5 86 bd 42 ac 56 3f
       0.17071897 0.77137303 -0.065866806 0.83856595
0002a0 88 6a 46 be bd c0 7b 3f e8 19 28 be 73 e7 70 3f
       -0.19376576 0.9834097 -0.16416132 0.94103163
0002b0 55 8c 1d be bd 84 63 be 66 43 99 3d 1f 29 05 3f
       -0.15385564 -0.22218604 0.07483558 0.5201587
0002c0 08 1f 12 bf 82 4f 0c bf f3 bd 5c 3d bf 40 54 3f
       -0.570786 -0.5480882 0.053892087 0.82911295
0002d0 d8 a7 0b bf e0 f5 8f 3e 2a 89 88 3e f0 b6 17 3e
       -0.54552984 0.28117275 0.26667148 0.14815879
0002e0 d0 c6 dc 3e 97 8d 61 3e 13 43 d1 3e a2 d5 d6 3e
       0.43120432 0.22026668 0.40871486 0.41959864
0002f0 9f 38 04 3f 22 cc df 3e d5 94 85 3f 1b 43 dc 3c
       0.51648897 0.43710428 1.0436045 0.026887467
000300 57 5c 84 be 01 c0 fe 3e 85 da a0 3e 47 a4 c6 3e
       -0.258517 0.49755862 0.31416717 0.3879721
000310 86 78 91 3e 44 4a 25 3f 5a 62 ce 3e 0a 9a 0d bf
       0.28412265 0.64566445 0.4030941 -0.5531317
000320 76 09 ff be 5b d9 05 3f 91 9a 95 3e c9 f3 86 3e
       -0.49811906 0.52284783 0.29219487 0.26357868
000330 66 c0 65 bd d1 18 e5 3e d5 ff 63 3e 18 73 5c 3e
       -0.05609169 0.44745496 0.22265561 0.2152828
000340 a5 ac a2 3e 1d 7d 09 bf f4 4c cb 3e bb 6b bd bd
       0.31772342 -0.5370653 0.39707148 -0.092490636
000350 ab 55 e1 3e 56 ca 9f be c0 0d 88 3e 03 db d3 be
       0.44010672 -0.31209058 0.2657299 -0.4137803
000360 af 0a a0 3e 9d 4e c3 3e e8 8f 91 3e 56 0f b9 3e
       0.3125815 0.38145915 0.28430104 0.36144513
000370 01 a0 37 3f 9e e2 97 be 32 22 8c be 84 68 78 3f
       0.7172852 -0.29665083 -0.2736984 0.9703448
000380 d6 1b d7 be 4a 91 81 3e 5b 78 d2 3e f6 08 9e 3e
       -0.42013425 0.2530616 0.4110745 0.30866212
000390 a4 ba 54 3e 69 e7 d3 3e 1a f3 ec 3d 45 2c 2b 3f
       0.20774323 0.4138749 0.115698054 0.66864425
0003a0 6a 60 42 3e 8c f6 f5 3e 49 cd 2f 3f dc b5 9f be
       0.18982092 0.48039663 0.68672615 -0.31193435
0003b0 d3 51 99 be cf 7c 9e 3e 7d 95 60 3e 3d d3 f3 3d
       -0.2994524 0.30954596 0.21932025 0.11905525
0003c0 e4 7c 8a 3e 6f dd 20 3f 85 39 c6 3e 44 09 e5 be
       0.2704841 0.6283788 0.3871576 -0.44733632
0003d0 45 7b b1 be ea 1e ce 3e 35 43 87 3e ff 13 98 3e
       -0.3466436 0.4025796 0.26418462 0.29702756
0003e0 9c 14 ae bd 77 5d e3 3e 61 3a e5 3e 3c d8 14 3e
       -0.08500025 0.44407246 0.44771102 0.14535612
0003f0 b4 14 18 3e 9f fd e8 3e 6f da ec 3e 66 49 22 bd
       0.14851648 0.45505998 0.46260402 -0.03962078

l1.bias f4 [8]
000000 85 47 45 3f 3e a6 77 3f 62 ca 28 3f dd b6 35 3f
       0.77062255 0.9673804 0.6593381 0.7098215
000010 b1 fc 37 3f 57 5c 26 3f 4f 04 78 3f 68 55 07 3f
       0.7186995 0.6498465 0.96881574 0.52864695

l2.weight f4 [8, 8]
000000 65 d6 9f be 5e cf 0b 3e 5e 86 54 be f4 73 88 bd
       -0.31218258 0.13653323 -0.20754382 -0.06662741
000010 e8 ba 2b bd ca 97 6d be 33 fa 83 be 04 10 9b be
       -0.041926295 -0.23202434 -0.25776824 -0.30285656
000020 bb 7b 87 3f 52 6a 91 3f d7 a2 89 bf f3 c6 54 3f
       1.0584635 1.1360571 -1.075282 0.8311607
000030 1f 6f 05 be 06 23 42 3f d9 5d 2d bf c5 a5 9f bf
       -0.1303067 0.7583469 -0.67721325 -1.2472464
000040 cc f6 8a 3f 81 89 38 bf 5b 73 b5 3f 54 61 8a 3f
       1.0856566 -0.72084814 1.4175829 1.0810952
000050 60 e1 58 be 06 59 f7 be b1 c7 86 3f fb a5 7d 3f
       -0.21179724 -0.48310107 1.0529691 0.9908139
000060 b2 da e5 3e 02 d8 2e 3d 11 b2 58 3f 5c e6 78 bf
       0.44893414 0.04268647 0.8464671 -0.972265
000070 ed 29 b9 3f 28 4f a0 3f e3 88 ad bd 04 79 b8 3f
       1.446592 1.2524157 -0.08473375 1.4411931
000080 46 9c ac 3f 71 e3 ab 3f c5 19 86 bf e9 3d 21 3f
       1.3485191 1.3428785 -1.0476614 0.6298509
000090 65 35 e5 3e 00 77 4c 3f de a8 6b bf 28 59 ff 3e
       0.447673 0.7986908 -0.92054546 0.49872708
0000a0 fd 1f b3 3d 91 26 2f 3e 96 bd 81 bf ad 82 8a bf
       0.08746336 0.17104556 -1.0135982 -1.0821129
0000b0 70 fe 42 3f 87 78 5e 3f 3e 71 60 bf 8b 36 f1 3e
       0.7616949 0.8690266 -0.87672794 0.47111925
0000c0 98 55 f6 be 7a c6 6a 3f 2a 0a ab bd fc 46 5a bf
       -0.48112178 0.917091 -0.08351548 -0.85264564
0000d0 d9 90 ef 3e 03 82 28 bd 1d 2c 72 3f fa f3 32 bf
       0.46790197 -0.041139614 0.9459856 -0.6990353
0000e0 5d 9a af 3e 85 6c 5b 3f 78 d7 4f 3f dc 23 39 3f
       0.34297457 0.8571246 0.81188154 0.7232034
0000f0 b8 d5 ee 3e ea b2 9d bd 16 dc c9 3f 52 95 9a bf
       0.4664743 -0.07700141 1.577029 -1.2076819

l2.bias f4 [8]
000000 b5 4a 8a bd 57 73 09 3f 5c fb cf be ec 7a b3 bd
       -0.067525305 0.5369162 -0.4062146 -0.0876368
000010 9a 36 86 3e f1 3a 72 3d b6 25 3f 3e a3 96 56 3f
       0.26213533 0.059138242 0.1866673 0.83823603

l3.weight f4 [8, 8]
000000 2f f1 85 bd a6 79 75 bf ab 29 8c 3e fd d8 00 3f
       -0.06540143 -0.95888746 0.2737554 0.503311
000010 2c 97 95 bf 88 b5 cc bf 48 77 83 bf 44 3f e2 bd
       -1.1686759 -1.5992899 -1.0270777 -0.11047223
000020 78 25 cd 3d a2 0a 84 3f 57 1f 82 bf 80 45 72 bf
       0.10016912 1.0315745 -1.0165814 -0.946373
000030 06 a5 1e 3f c4 ae 98 bf 3d f0 a7 bf b2 1d f2 be
       0.61970556 -1.1928334 -1.312019 -0.4728828
000040 c2 71 49 bd bc 6c 3f 3e dd 4b 9a bc 2c 19 e3 bf
       -0.049180754 0.18693823 -0.018835003 -1.7742057
000050 07 1c 4a bd db 8f 37 bf ea a4 8f 3e aa 40 8f 3e
       -0.049343135 -0.7170388 0.28055507 0.27979022
000060 f0 69 1a be 31 c9 d5 bf 90 05 f3 be 88 00 97 be
       -0.15079474 -1.6702024 -0.4746518 -0.29492593
000070 35 d3 9a bf dc 00 9b be 37 9c 95 3f 22 b7 1e 3f
       -1.2095705 -0.30274093 1.1688298 0.6199819
000080 37 98 6a 3e fc 38 ae 3e af 6a bf bf 7f 05 99 3e
       0.22909628 0.3402785 -1.4954432 0.29887006
000090 2e 0d 8c 3e d1 8e a8 3e 52 79 06 3f 41 c5 25 bf
       0.27353805 0.3292146 0.5252887 -0.6475411
0000a0 68 75 c5 be 10 59 a4 bf 54 b5 a6 bf ee 3f 1d 3f
       -0.38566136 -1.283968 -1.3024087 0.61425674
0000b0 1b e7 8f 3e 63 5c 68 3f 2e 95 c3 bf bb 2f a7 bf
       0.28106007 0.9076597 -1.5279901 -1.3061441
0000c0 4c 59 19 be 0f c3 b3 bf 06 f8 04 3f f4 a4 9b bf
       -0.1497547 -1.4043902 0.51940954 -1.2159715
0000d0 2f 4f 86 bf 98 a5 18 be 10 7e 82 bf ab 70 90 3e
       -1.0492915 -0.14906919 -1.0194721 0.2821096
0000e0 f8 9d a2 bd 8f ab 80 bf c3 86 b3 be 0f ae 16 3f
       -0.079402864 -1.0052356 -0.35063753 0.5885934
0000f0 3c ae f5 3e 22 1f 14 bf d3 e8 93 bf 3d 32 5b bf
       0.47984493 -0.57860005 -1.1555427 -0.8562353

l3.bias f4 [8]
000000 cb 63 4a 3d 5b 0f f3 bd 36 2f b3 bc 4a 22 39 3f
       0.049411576 -0.11868163 -0.021873098 0.72317946
000010 9a de 94 be 7a 76 77 bd 09 89 e0 be cc c8 86 be
       -0.29076082 -0.060415722 -0.4385455 -0.2632507
